Processing training data...
Processing test data...
Extracting tokens...
Found 14838 unique tokens.
Populating embedding matrix...
Extracting tokens/ characters...
Found 134 unique charactertokens.
_________________________________________________________________
Layer (type)                 Output Shape              Param #   
=================================================================
input_1 (InputLayer)         (None, 100)               0         
_________________________________________________________________
embedding_1 (Embedding)      (None, 100, 300)          5026200   
_________________________________________________________________
bidirectional_1 (Bidirection (None, 256)               439296    
_________________________________________________________________
dense_1 (Dense)              (None, 4)                 1028      
=================================================================
Total params: 5,466,524
Trainable params: 440,324
Non-trainable params: 5,026,200
_________________________________________________________________
Starting k-fold cross validation...
----------------------------------------
Fold 1/5
Building model...
_________________________________________________________________
Layer (type)                 Output Shape              Param #   
=================================================================
input_2 (InputLayer)         (None, 100)               0         
_________________________________________________________________
embedding_2 (Embedding)      (None, 100, 300)          5026200   
_________________________________________________________________
bidirectional_2 (Bidirection (None, 256)               439296    
_________________________________________________________________
dense_2 (Dense)              (None, 4)                 1028      
=================================================================
Total params: 5,466,524
Trainable params: 440,324
Non-trainable params: 5,026,200
_________________________________________________________________
Train on 24128 samples, validate on 6032 samples
Epoch 1/20
 - 31s - loss: 1.2745 - acc: 0.4859 - val_loss: 1.2760 - val_acc: 0.4995
Epoch 2/20
 - 30s - loss: 1.2571 - acc: 0.4947 - val_loss: 1.3237 - val_acc: 0.4995
…
